data/discrete/entropy/list_params.npy (npy, 48128 bytes, 1 tensors)

array f8 [400, 15]
00000000: 98e9 a086 723c 89bf 6dda d51c 0e49 d9bf
00000010: 137f 2be2 d1df 87bf 3da8 2bae 1eab 683f
00000020: 686e a506 445f f7bf fed8 2872 9d31 7a3f
00000030: 93c4 ba05 0006 64bf b0a5 2156 c145 e73f
00000040: f4fb a6b5 15a8 f43f 770f f405 de87 6abf
00000050: 1333 e471 ac26 ecbf 7034 6a66 d19d 61bf
00000060: 78aa 9c51 b313 80bf 01a3 31de a69a 45bf
00000070: 6800 5daf 9293 86bf 02ba 965f 0fd9 88bf
00000080: 1ecf 6d02 7c27 0740 2e57 09c9 6186 a9bf
00000090: 4989 c125 5bbe 693f ebd9 4787 4d17 0040
000000a0: abc8 97be e7a1 b5bf 4cd8 de05 cf29 babf
000000b0: d12d e4b9 8ed6 ddbf 6d1b e387 3930 01c0
000000c0: 1ab8 c688 7172 9c3f 5575 c26d e069 f0bf
000000d0: 1c6d 6478 0d42 61bf 8acf 65bb c99d 7fbf
000000e0: e9a9 8fe7 5342 42bf 65c8 aa9e c34e 86bf
000000f0: 2642 1901 a4d8 88bf 2f66 3c33 06be 0240
00000100: 931f def6 a45f dbbf 3a3b 0d78 3dbf 693f
00000110: fbbd 07b7 99e4 e23f 45a6 43ae 3205 c0bf
00000120: f984 0905 5a3c b13f 74c4 4e54 bd20 ec3f
00000130: ac7b e394 b23b ffbf 56d8 e096 e1cc d73f
00000140: d62d 1057 15ce e63f 2c26 7189 f048 c7bf
00000150: bc45 6fae 909d 7fbf 92e7 955c 1d47 42bf
00000160: 37cd dca0 0e4f 86bf 686e 52d8 bfd8 88bf
00000170: 91a1 8148 87e3 d8bf 1e95 ffc1 7964 dd3f
00000180: c77a 803b 61bf 693f bb1b 0422 b116 0340
00000190: f160 b806 d7ee bc3f e4d9 7f2f 9e5f ee3f
000001a0: d31e e9b2 ce5f e43f 9896 92eb a4ab 03c0
000001b0: 1fdf e3d6 a909 ed3f 3d0b 933f 5968 e9bf
000001c0: ad10 5a08 e548 c7bf 78e0 4491 c99d 7fbf
000001d0: 131c 6ac2 5149 42bf fb3a 871b 0a4f 86bf
000001e0: 31db 7c24 99d8 88bf 2b42 0d57 e8af db3f
000001f0: 5545 3244 507c e73f cd80 cca0 babf 693f
00000200: e488 e88a f8ff 0940 ede9 4f6a 57bc e23f
00000210: 4e84 7954 67b4 f03f a4ce 0ea7 d119 eb3f
00000220: 5f31 a3f9 a974 02c0 1383 e70b b1d3 e53f
00000230: caaa 735f 1c94 04c0 59ff b3ae 1ce1 b0bf
00000240: 2d43 3222 e79d 7fbf bbdf e85a 3f4c 42bf
00000250: 17ee af6b fe4e 86bf e9cc 4c60 a1d8 88bf
00000260: f248 7c4e 04d9 f23f fba3 d11c 68b8 ec3f
00000270: 645b 45d8 bdbf 693f 02a2 0450 6f87 0940
00000280: 2056 c28f 2172 e03f feac 3eca b4ef e93f
00000290: c462 6159 a7f8 f13f ad6e ee88 0041 02c0
000002a0: bdfe 0862 2145 ed3f dc54 2862 578f 0ac0
000002b0: d1b7 462b fd28 a53f 5118 d7f8 f39d 7fbf
000002c0: 340d 13b9 b14c 42bf e701 d241 034f 86bf
000002d0: a5ef d062 a1d8 88bf 516e c50e f62d fc3f
000002e0: 66eb 3bf7 08f3 e23f 795e b609 d0bf 693f
000002f0: 2681 a4bb 7c4b 0d40 0843 91eb f665 e23f
00000300: dc8e eed9 3e4a f03f 4d39 cd08 b2d8 f83f
00000310: a3da d8a4 2345 00c0 dbd4 cabb f421 d73f
00000320: c21b 2419 3adf 0fc0 8776 c12e e098 d93f
00000330: 0248 d305 f59d 7fbf 5159 0460 344c 42bf
00000340: b7af 3de8 034f 86bf cdf4 63b8 89d8 88bf
00000350: cde6 3466 e2e9 f1bf 2dfc 0b2c 4814 0040
00000360: 943b 4cb9 9dbf 693f ac0a ca5e b6b2 fe3f
00000370: 2362 bdf2 d5d9 a6bf acaf 23c4 c76a 4c3f
00000380: e4ce 1759 3706 cbbf 828d 0695 a47e f5bf
00000390: a2fb e362 06fc 0740 7c89 7e3b 96ef fbbf
000003a0: 1290 0c1b 4470 e8bf c181 21ec 7d9e 7fbf
000003b0: 5fc2 ce93 724b 42bf be47 01e4 d24e 86bf
000003c0: 2e95 7ca2 98d9 88bf b284 01bc 5f74 1240
000003d0: 9943 b581 c0e3 f93f ec6a a77c 5fbb 693f
000003e0: a434 23bb c062 20c0 9069 6d62 da58 e13f
000003f0: fe31 641e 8954 0bc0 0a3d dec3 3291 07c0
00000400: 8ad6 5760 0247 f4bf 8e43 cbe4 db46 2ac0
00000410: 4d12 f021 0ea1 16c0 374e 0589 9d3e 1640
00000420: 6b7f f73b fd95 7fbf d16a febb 7918 42bf
00000430: 1ab7 1027 944a 86bf 38c1 5086 97d9 88bf
00000440: ca6b b908 8376 1240 1899 6629 b596 f83f
00000450: 2794 3122 61bb 693f f5e1 fc30 76f5 20c0
00000460: 34fb fb58 38e3 e13f 9129 0054 c033 0bc0
00000470: df07 5c3a c7c0 07c0 196f a199 1a99 f6bf
00000480: e801 3a06 64c9 29c0 b7bf 7d2c b7a2 16c0
00000490: c7b5 9986 b5a4 1640 83e3 8c65 fc95 7fbf
000004a0: 089c 1d75 7018 42bf afd9 db26 944a 86bf
000004b0: e22a e1d8 96d9 88bf 2b7c 41d4 d26e 1240
000004c0: ccbe 2831 f042 f83f b7e5 c68b 64bb 693f
000004d0: dfba 698f b610 21c0 85e3 1611 8f0d e43f
000004e0: a47d 7b47 5023 0bc0 0224 bcdd 4cc1 07c0
000004f0: e050 4fee 0368 f6bf 2866 858f e8a9 29c0
00000500: 4292 dea6 4552 16c0 94ac 8f93 6dce 1640
00000510: 4a58 44bf fb95 7fbf f45b 2862 6f18 42bf
00000520: df8f 8b26 944a 86bf bf47 55a2 25d9 88bf
00000530: 5d80 8c19 e494 09c0 64db 61b6 29a2 0e40
00000540: 0614 9656 91bd 693f dcd5 70b9 3107 32c0
00000550: abda 0fc0 5855 1d40 21f6 ed7a b7ce 1ec0
00000560: 7e86 e0fe fe51 17c0 0c19 cb96 aeef dd3f
00000570: 5dec d419 9550 18c0 f5b7 5fee 53ff 1040
00000580: 9780 1505 a986 2340 77bb cff9 f797 7fbf
00000590: 3d59 e1ce 1824 42bf 36c1 8e16 474b 86bf
000005a0: 23be 00cd 23d9 88bf 5929 10ee 450f 0bc0
000005b0: f91b 9c79 10a9 0e40 3f4f 70ee 9abd 693f
000005c0: 37a1 1809 6e45 32c0 a5cb 29c2 65ce 1e40
000005d0: 6eea d3b4 5c20 20c0 3e53 6a34 ec44 17c0
000005e0: d855 9fc2 603d e33f 631a 0d75 4fe8 16c0
000005f0: a8ec 48b1 01c0 1040 be03 906d c317 2440
00000600: d72d 76dd ee97 7fbf 1893 2662 ff23 42bf
00000610: 6953 9abb 444b 86bf e4de b953 24d9 88bf
00000620: c8cf 7efc b327 0bc0 b2b5 1f96 7b82 0e40
00000630: a5a6 f216 99bd 693f 6b9d d040 1f63 32c0
00000640: 02d9 48f6 07ed 1e40 3153 29ee ef37 20c0
00000650: 6906 99e3 7a2e 17c0 b66c 442c 4487 e33f
00000660: 1c2b 49ce ecb1 16c0 eba8 76f9 5350 1140
00000670: b9f6 9758 21fe 2340 a358 8001 ef97 7fbf
00000680: 1ae6 482f 0724 42bf 768c 3be5 444b 86bf
00000690: ca23 04e7 23d9 88bf d9e6 9137 87b6 0ac0
000006a0: 867e 8ee7 d7d7 0e40 9326 a3f2 97bd 693f
000006b0: d444 3e59 4f2b 32c0 d1ca 1150 c0a2 1e40
000006c0: f3cc b6d4 81ff 1fc0 efe2 d816 f74f 17c0
000006d0: 7b11 a023 87dd e23f d6d0 dd90 2a31 17c0
000006e0: ef11 30e3 3a28 1040 5569 541d 5d2a 2440
000006f0: a6b2 0f6c f097 7fbf 6069 2bec 0524 42bf
00000700: 1167 3f60 454b 86bf fb1d 4154 21d9 88bf
00000710: fe9c e993 d4e3 0fc0 3b78 f143 f0e7 0d40
00000720: e874 5ad7 97bd 693f 53fe 74ee 55b5 32c0
00000730: 459c b367 d34a 2040 a55c a9f7 9d28 21c0
00000740: 8bfe a993 ad5e 17c0 a0f7 fa80 47e4 e83f
00000750: 965a cdec 40a6 14c0 de76 3b86 58ab 1440
00000760: ce36 522c 4748 2440 bc25 daf0 cb97 7fbf
00000770: ad18 113f 3123 42bf 38d0 67a9 514b 86bf
00000780: 7a30 3cac b0d8 88bf d24f 6081 6a5b 10c0
00000790: d31d aece c5ab 0840 a202 3af5 65bf 693f
000007a0: d785 01e3 486c 33c0 8acd 3b1e 51a2 2040
000007b0: 9c20 600f 9121 23c0 7efc c439 32c7 1ac0
000007c0: 0d23 39ce a6fa 0740 b3f3 a806 64a9 03c0
000007d0: a418 45dc c62d 1c40 0489 1a0d 38aa 2140
000007e0: eed4 b31a 5297 7fbf 130e 858b c824 42bf
000007f0: 0e1d 78e0 f64a 86bf fc31 7dad b9d8 88bf
-0.012322325452363711 -0.395083931121383 -0.011657371248872594 0.003011283800664648 -1.4607582339875993 0.0063949728233210195 -0.002444267314637269 0.7272650415663318
1.2910363288681284 -0.0032386146918969533 -0.8797209000054828 -0.0021504487843402795 -0.007850075653171404 -0.0006593050751578512 -0.011023660637533975 -0.01213275919402879
2.894279498077494 -0.04985337809618638 0.003142526647978237 2.0113783425142535 -0.08450172808787453 -0.10220044987986049 -0.466220552000519 -2.1485472313101384
0.027780317280921542 -1.0258487975582586 -0.0021066916552975445 -0.007718837753021188 -0.0005572232904545424 -0.010892418174396743 -0.012131959231880773 2.342785263329254
-0.427712670404156 0.0031429482045618714 0.5904053282555987 -0.12515862950322024 0.06732714293459087 0.8789965292582012 -1.9520746055565992 0.3718799565716656
0.7126566601231683 -0.18191343985590558 -0.007718625222837113 -0.0005577939383975986 -0.010892977031835656 -0.012132166661380242 -0.38888723450374935 0.45925754494813187
0.0031430148192293813 2.386080041647316 0.113019408360177 0.9491721084330575 0.6366952413891006 -2.4588106540785013 0.9074296185562821 -0.7939878694236097
-0.18191206844142496 -0.007718837139968675 -0.0005580567565893778 -0.010892943348975495 -0.012131878305451234 0.4326115465273996 0.7339249927482948 0.0031431813316801006
3.249985776158711 0.5854909016045987 1.0440438556472773 0.8469017279480409 -2.306964826863051 0.6820912582880702 -2.5723197419332324 -0.06593493714535494
-0.007718947282356931 -0.000558405814280675 -0.010892856274941782 -0.012131939650862527 1.1779826227034929 0.897510582243853 0.0031431873232280905 3.1911302806295234
0.5139320190234606 0.8105110120863228 1.1232064715788264 -2.281739301468255 0.9146887697933931 -3.319990889411754 0.041328345806831764 -0.0077189951093200185
-0.0005584590709521221 -0.010892892309358039 -0.012131939724092275 1.7612209870338982 0.5921673611440894 0.003143221210574695 3.661859003026751 0.574946842281947
1.0181263459170884 1.5529041618170425 -2.03375939165865 0.3614475091847688 -3.9839975322861116 0.39995579305637147 -0.007718999023568431 -0.0005584007012966829
-0.010892897152835574 -0.012131763400697793 -1.1196006767699374 2.00990328227592 0.003143127493224049 1.9186309530929675 -0.044630704766579286 0.000867221395564046
-0.21112720346683667 -1.3434186765015004 2.9980590558838722 -1.745992882155945 -0.7637043503095831 -0.007719509014436133 -0.0005583104572136169 -0.01089253195110362
-0.012133781870554996 4.613646447746918 1.6181035105439376 0.0031411042193502017 -8.192876670882761 0.5420963213357926 -3.4162771581961797 -2.9458976080128467
-1.2673362506297132 -13.138396405994879 -5.657280473974038 5.561147824238609 -0.0077114002192216575 -0.0005522341161737447 -0.01088443512170616 -0.012133773600084483
4.615734230344012 1.5367938630311695 0.0031411072864551306 -8.479417353505577 0.5589868295645375 -3.4002691805409957 -2.9691299971900516 -1.4123788834758157
-12.893341250020015 -5.65890187757025 5.660848715907782 -0.007711397099051778 -0.0005522297962955456 -0.010884435115696115 -0.012133768552435812 4.608226124283685
1.5163423462180843 0.0031411136426100178 -8.532642823845377 0.6266551336076281 -3.392242964225902 -2.9693848918000194 -1.4003943737962388 -12.831852421793045
-5.580343825659442 5.701589875835584 -0.00771139467931021 -0.0005522292961498408 -0.010884435106568389 -0.012132925049318176 -3.1977006908419257 3.8291811226476273
0.0031421507489448634 -18.028102483794882 7.3333463678051585 -7.701871796392454 -5.830074293569508 0.4677540276137655 -6.078693774815375 4.249343609420966
9.76300826919059 -0.007713287978716169 -0.0005536194928577387 -0.010885768295196923 -0.012132911390010886 -3.382457599514208 3.832550954891755 0.003142168617623314
-18.271210258973237 7.701560052681917 -8.063207293385144 -5.817307299604009 0.6012424279421635 -5.726865605282543 4.187506456447558 10.046412872152242
-0.007713254038559345 -0.0005536076535475913 -0.010885750746902638 -0.012132915310970778 -3.3943862653922885 3.8137122848918006 0.0031421651870758454 -18.387195635730148
7.7314756853068065 -8.109252398056556 -5.795390659537227 0.6102619995684992 -5.673754904952855 4.328445337169096 9.996348160314811 -0.00771325456300623
-0.0005536112863133186 -0.010885751958488604 -0.012132912147096681 -3.3391250935936623 3.8553922739373006 0.0031421630602366884 -18.16917951364742 7.658936740003541
-7.999518703133833 -5.828091008174609 0.5895419784360877 -5.798013938463745 4.039287137803043 10.082741657785542 -0.0077132598389481385 -0.000553610698570222
-0.01088575553869789 -0.012132892974604728 -3.9862453036945444 3.7382512386384668 0.0031421628617197446 -18.70834246021543 8.146144142794705 -8.579330195831355
-5.84245901799262 0.7778661269328389 -5.162357044252209 5.167329881076254 10.141168007884882 -0.00771312393556783 -0.000553511663505165 -0.010885847074838848
-0.012132053619574135 -4.089273473266035 3.083873381317724 0.003143023621135236 -19.42298716342142 8.317025131988675 -9.565559845432567 -6.694527533195581
2.997388468855553 -2.4577103157339137 7.044703904835988 8.832458886613047 -0.007712670059153865 -0.0005537013267162292 -0.010885170674568314 -0.012132120711293652
