data/discrete/list_params.npy (npy, 48128 bytes, 1 tensors)

array f8 [400, 15]
00000000: b817 3c1d 2877 49bf f848 ad36 26e8 be3f
00000010: 882f 4651 cd67 b93f edc0 595f 7da2 7fbf
00000020: 141a f692 0274 0840 574d a7a6 5b49 b0bf
00000030: 8289 b802 04a2 c6bf 4959 f2d6 fcdc 03c0
00000040: e060 701f 543c f0bf 79e6 d91c ef6a aebf
00000050: bc29 9e72 7e3b 0d40 e2e2 4fb0 61c9 b2bf
00000060: 11eb de2f dd17 733f b5db 0f2b d54c 853f
00000070: 2906 f018 99a1 843f d8ec bb57 3477 49bf
00000080: 7406 ead6 90dc d1bf c733 5bae dbae b03f
00000090: 0bbb b63a 7ea2 7fbf b44b 5a4a b23f 0a40
000000a0: 56f5 12fd 6da5 843f d1a9 78ca 51c9 b1bf
000000b0: a298 30d8 266b 04c0 00c9 769a 2ce8 eebf
000000c0: 7914 b772 2f03 c2bf 59b6 21d3 8e4c 0d40
000000d0: e776 5d00 53d5 abbf 94b9 28d2 dc17 733f
000000e0: a5bd 93af d54c 853f c659 af90 9aa1 843f
000000f0: e331 3821 3577 49bf dc8e d5f6 8e6c d0bf
00000100: 444a 519c 521e b13f abca 5c1f 7ea2 7fbf
00000110: ae97 3e48 e8a1 0a40 bf35 84fa fce2 843f
00000120: 18dd bf6e 3034 b2bf 339f d52e cfca 04c0
00000130: 522f 65bb 81e8 edbf 13d4 d293 d13e c2bf
00000140: 8de8 3ab6 1257 0d40 e2f5 1281 21a7 aabf
00000150: 75dd 45c3 dc17 733f 31d5 0f7e d54c 853f
00000160: 2473 f982 9aa1 843f 3802 2721 2c77 49bf
00000170: d2a1 034e 9e00 ccbf 8a71 f6fa 9597 9b3f
00000180: 8e81 266e 7da2 7fbf 6db9 57c3 4db3 0a40
00000190: bc04 61b9 94cd a03f 6a7e b495 c193 80bf
000001a0: 1c19 f860 af3f 04c0 cebd 0fe3 4325 f0bf
000001b0: 9019 722f eb45 c3bf 2555 33f7 165e 0d40
000001c0: ec1d f2cc 69db a8bf 9ead c433 dc17 733f
000001d0: c3e5 a3d1 d54c 853f e85c c874 9aa1 843f
000001e0: 4d54 705f 2777 49bf 4294 60f7 118a d0bf
000001f0: 22e2 6545 71dc 94bf 71d2 ff5a 7ca2 7fbf
00000200: 041d 4047 6c48 0a40 7258 46fe 5482 aa3f
00000210: e56c d7b1 0bbc ad3f 5761 6c14 6641 04c0
00000220: 43f3 a99a dd8d efbf f12a c011 19b2 c2bf
00000230: 97bf 844a e65f 0d40 2c93 b000 9216 abbf
00000240: ffd9 cf65 dc17 733f b95e 33cc d54c 853f
00000250: 5f98 59b8 9aa1 843f 1c46 e2c4 1d77 49bf
00000260: 46a7 0fb1 4057 d1bf 1956 9886 e08f 893f
00000270: 8348 9e42 7ba2 7fbf 0678 859a 801d 0a40
00000280: d3ba 25c1 a18a a43f c034 0ee3 0876 8c3f
00000290: 1b23 a9f6 51ba 04c0 7fae 3930 076b edbf
000002a0: 89f6 c12b bb60 c3bf 5c4b 0502 5766 0d40
000002b0: be31 1fe1 4095 adbf 4a24 0aaf dc17 733f
000002c0: fe8e b4f7 d54c 853f b916 af0d 9ba1 843f
000002d0: 508a 06f1 1b77 49bf 9038 2f29 8218 c6bf
000002e0: 0cbd 7dd4 59e6 95bf 5cfd d1c9 7aa2 7fbf
000002f0: 51ea a6d1 4050 0b40 cf90 21b8 f36c b13f
00000300: 287c 66e1 d27b b33f 276e 432d ba58 04c0
00000310: e3f1 c36c 1f43 f0bf cf75 b7c5 2f33 c6bf
00000320: 0ee2 5bb6 1574 0d40 441d 8237 9300 a5bf
00000330: ab4d 6105 de17 733f e09b 492e d74c 853f
00000340: f40c 0c82 9ba1 843f 4b7d b70e 1677 49bf
00000350: fc75 7a91 0e00 cebf 6df6 fd28 df26 86bf
00000360: 5d58 a910 7aa2 7fbf b07d e5e9 ad8c 0a40
00000370: 7d8e 5ff6 acb8 b03f 4b57 51a5 8425 b03f
00000380: 63f9 74a1 67a5 04c0 46c5 cd71 624d eebf
00000390: 30ab b162 9d60 c6bf a231 63fe f161 0d40
000003a0: 4ad9 8536 6e63 a6bf 1b61 7925 de17 733f
000003b0: cca4 6b56 d74c 853f 4f50 84a4 9ba1 843f
000003c0: f89e da99 1a77 49bf b7f5 369b cb11 d5bf
000003d0: 75b3 b092 48e4 b4bf ceee a6fe 79a2 7fbf
000003e0: a5b5 c2c4 43d0 0940 d570 ef5d 4e4f b53f
000003f0: 8e80 7ac3 fc5d c33f 9e70 f97e 9be7 03c0
00000400: 2cbb 3c82 5b13 f0bf 2acf 05d2 eb28 c3bf
00000410: afd1 2a02 8666 0d40 1a22 b32a dc24 b2bf
00000420: 6d94 cf50 df17 733f 9b7c 5281 d74c 853f
00000430: 8599 3bcf 9ba1 843f a906 e1d0 2477 49bf
00000440: a425 28d1 5e77 d4bf 109b e77b 42e8 c5bf
00000450: f465 4be8 7ba2 7fbf 7d2e 8e94 a23d 0b40
00000460: 0b02 dcb3 071a be3f cdcc dbdb 98a0 d13f
00000470: c5f4 31ef a023 04c0 be21 839e 415c f0bf
00000480: 1ecc 1f65 1f72 c1bf 2a7f a06c ef5d 0d40
00000490: 8560 8d5a ffcd b6bf 4fe3 7110 df17 733f
000004a0: 9672 e34f d64c 853f 3f7f c4a7 9aa1 843f
000004b0: 99d8 df0d 0677 49bf 467c 3d72 1679 d1bf
000004c0: 34fb c582 b1b4 8d3f 4a26 3638 79a2 7fbf
000004d0: 94f2 86df cb32 0940 9538 bea6 7702 b93f
000004e0: a608 c224 ac88 b23f 78c0 43c8 150e 04c0
000004f0: 0b1b 2889 4801 eebf 7c06 6407 f9fa cdbf
00000500: aa35 0c6c fa70 0d40 c39c 6188 5426 84bf
00000510: e117 7fd7 df17 733f d122 ad25 d74c 853f
00000520: b094 b4e5 99a1 843f 3a65 02ab f276 49bf
00000530: 630e 80d1 f6c3 ccbf e474 4c37 1029 b1bf
00000540: 3589 8c72 76a2 7fbf 7cfe c423 e3d6 0a40
00000550: 237a 9df1 68d6 c23f 7480 38d3 1e11 ca3f
00000560: 04c6 31de e08d 04c0 061e 0764 91dc ecbf
00000570: 3612 8477 b42e cfbf 513e 87b5 2f78 0d40
00000580: de38 fe96 dec8 9c3f 9428 03ad e017 733f
00000590: 75df 1ce3 d64c 853f 0dd4 2e0a 9aa1 843f
000005a0: 3d75 2d63 f876 49bf 7aae 74ad 34bf c7bf
000005b0: 0452 0845 4d74 a13f 0171 9b9e 76a2 7fbf
000005c0: 7072 3f9b 3e96 0940 17e3 b2ea 8e6c bd3f
000005d0: 159c f57a 5c40 b23f 9fb3 ee07 19a8 04c0
000005e0: 922b 7c71 28a0 ebbf 9358 aafd 4151 d1bf
000005f0: 21e0 7c4e 8b92 0d40 e5c8 a392 d738 7d3f
00000600: 6fb7 f2e5 e017 733f c653 70fa d64c 853f
00000610: 1783 2b6e 99a1 843f 9d64 c009 7076 49bf
00000620: bcb1 e6e1 b4a5 d3bf e45d 086c 76d2 c0bf
00000630: c9c8 546b 71a2 7fbf 1bf4 1aad 37b2 0940
00000640: 0992 a2c3 1293 c13f 6e9f ccd4 7ea2 d03f
00000650: cba9 1a1d 889e 03c0 65f3 5baf 6434 efbf
00000660: 7d78 0a37 c47e c6bf f969 6466 39a0 0d40
00000670: 04d5 b78b 0c36 b8bf f1e8 241b df17 733f
00000680: b18e 1359 d54c 853f f7ed 6745 9aa1 843f
00000690: 9c4c e983 6d76 49bf ef27 0c01 2066 b1bf
000006a0: 7753 6fee 873f babf 21a3 6675 6ea2 7fbf
000006b0: d335 2adf 66d1 0a40 2dbe 0314 2f6d b43f
000006c0: a0c8 d83a 512b c63f f054 0b2f 88cc 04c0
000006d0: 86c9 c926 ca10 edbf 3300 fff4 6f4c bcbf
000006e0: 1812 5ba6 d0d8 0d40 4572 4079 6933 c6bf
000006f0: 8f32 dd42 e117 733f 2740 58a7 d54c 853f
00000700: 47a1 c17e 9aa1 843f 6f95 04f7 8876 49bf
00000710: bd5e c52c 4be8 d13f 70d4 a03a 5502 c0bf
00000720: 5251 c905 6ea2 7fbf ccd5 0ee1 ef34 0940
00000730: e93a 1d10 4972 b8bf 0c0a 0d93 8fd3 933f
00000740: 8860 3136 99a2 04c0 9fa4 72b5 03fe eebf
00000750: 1410 88fe 2314 c43f 687d 5182 36e1 0d40
00000760: da6f 71be 6aea dcbf 94a3 a791 e617 733f
00000770: 44cf ed21 d44c 853f 6851 349e 9aa1 843f
00000780: a60b 332b 7276 49bf 29c0 f937 567c d83f
00000790: 4e44 8360 f2ef d6bf 4f5e a931 6aa2 7fbf
000007a0: 5f56 ecc5 61d3 0840 14cc 7e7e 1e64 b8bf
000007b0: a9fd ed2a 9c4c d03f 0959 98af cc49 04c0
000007c0: d93e 5196 c9c4 f0bf 8fbe c1ca 565c d33f
000007d0: 0a55 2549 bc08 0e40 72fc 2bf6 5e7a e1bf
000007e0: 3119 8192 e817 733f b484 8da6 d34c 853f
000007f0: 2635 9e7f 9ba1 843f feab 4ec3 3376 49bf
-0.000777144038210712 0.12072981676945804 0.09924014314873209 -0.007723321663078969 3.05664553464454 -0.06361935442628429 -0.17681932576040188 -2.482904128332994
-1.0147286632618986 -0.05940959193408175 3.6540497736470723 -0.07338533930295513 0.004661430370044754 0.010400452973028477 0.01007384879449365 -0.0007771497325558497
-0.27908726680480034 0.06516812330956077 -0.007723324855233536 3.281101780777556 0.010081157003123547 -0.069478141719322 -2.552320183737792 -0.9658415810465897
-0.14072220898939117 3.6623817915595223 -0.054361909670417145 0.004661429006360147 0.010400456829727409 0.010073859730181389 -0.0007771500990557092 -0.2566258821955054
0.06686893764825991 -0.007723324457219387 3.329056324396297 0.010198570628314195 -0.07110884384006899 -2.5990279826109144 -0.9346321735442678 -0.14254207342097
3.6675161587455194 -0.05205635738955629 0.004661428789737844 0.010400455388643511 0.010073859331151853 -0.0007771459079820081 -0.2187688713959362 0.026945441668077254
-0.007723321878444612 3.3375506650110567 0.03281845820357307 -0.008094322568069152 -2.531096227237084 -1.0090979451741648 -0.15057124916729636 3.6709422409573045
-0.04854899050502212 0.004661426701470543 0.01040045782109445 0.010073858918117698 -0.000777143692973889 -0.2584271350663735 -0.020372171269146595 -0.0077233178744689915
3.28536277450951 0.051775604285624235 0.058075299700897344 -2.5319329829764388 -0.9860675831583666 -0.14606011740428174 3.671825964141998 -0.05290657289905307
0.004661427429701436 0.010400457662782402 0.010073860884585338 -0.0007771392208885705 -0.270950482283855 0.012481454951777814 -0.007723313794388289 3.2644054481488665
0.04012017710453155 0.013897008351501206 -2.590976645504623 -0.9193149511242636 -0.15138950001339804 3.6749706418863024 -0.057779338341422 0.004661428495304662
0.01040045892893415 0.010073863368130419 -0.000777138369859218 -0.17262293826064878 -0.021386531443053733 -0.007723312036545717 3.4141861323417193 0.06806872601879664
0.0761081505101947 -2.5433238540843095 -1.016387390961534 -0.17343709138996963 3.6816820380011057 -0.041020012403402834 0.004661433477014236 0.010400467968066651
0.01007386675474329 -0.0007771356298994862 -0.2343767366736954 -0.010816329420545412 -0.007723309342131027 3.318691088977822 0.06531792654964792 0.06307248149945825
-2.580764066107052 -0.9469463560800839 -0.1748234493164431 3.6728248476049012 -0.043727344661351156 0.004661433944044081 0.010400469136089184 0.010073867757945857
-0.0007771377456337871 -0.32921114118274936 -0.08160832959465643 -0.007723309080059427 3.226691758338989 0.08324136536924993 0.15130576653337297 -2.488089553820898
-1.0047259414092862 -0.1496863151074817 3.675060288364157 -0.07087493936990832 0.004661438299966664 0.010400470384693874 0.01007386900114394 -0.000777142502336588
-0.3197857897326577 -0.17115050363573703 -0.007723316205294751 3.405095253552473 0.11758468762491973 0.27542706938329503 -2.5173968016739274 -1.0225235168346525
-0.1362952464838551 3.6708668219070164 -0.08908077202556981 0.004661437363318323 0.010400461495401896 0.010073860401973554 -0.0007771281777866512 -0.2730156055094465
0.014504801562677729 -0.007723306192369226 3.1498029196794253 0.09769389935374513 0.07239795586977724 -2.5068774839092463 -0.937656658062083 -0.23422158108592217
3.6801651421762545 -0.009838734066035198 0.004661440259900091 0.0104004677174471 0.010073854754020978 -0.0007771191503877291 -0.2247303507757464 -0.06703282690110118
-0.007723295865419912 3.3549254221432516 0.1471682719956827 0.20364747346411927 -2.569276557821242 -0.9019247964542394 -0.24361282191979833 3.683684747876932
0.028110006299862593 0.004661443366965074 0.010400465780193472 0.010073855815656807 -0.0007771218136941937 -0.18552263707657685 0.034090437580889726 -0.007723296506551459
3.1983615998017783 0.11493771772337556 0.07129457475603858 -2.5820789928170167 -0.8633005348686871 -0.2705845811082181 3.696554768739603 0.0071342869580226275
0.004661444195489624 0.010400466459069235 0.010073851275082242 -0.0007770583210941099 -0.30698892651232845 -0.13142280840905507 -0.007723277133935899 3.212020256409699
0.13730082085125186 0.2599179342382659 -2.4524080537569026 -0.9751456665977513 -0.17574360549491877 3.703234481753722 -0.09457472239576609 0.004661437519013698
0.010400454312225223 0.010073857539274462 -0.0007770571463176115 -0.06796455407689427 -0.1025319058529258 -0.007723266104598976 3.3522469935185 0.07979101408613394
0.17319693921451051 -2.599869124921149 -0.9082995183546678 -0.11054134112691898 3.7308667179625097 -0.17344396992202085 0.004661445547594525 0.010400456590133512
0.010073859208390558 -0.000777069928550018 0.27980307933965404 -0.12507119524676424 -0.007723264480393803 3.150848158135636 -0.09549385684406854 0.01936172804858853
-2.5793937906092346 -0.9685076278593846 0.15686464241309805 3.734967249023317 -0.45180767629585505 0.004661465320602871 0.010400445256642528 0.010073860123647818
-0.0007770593132579897 0.3825889155041318 -0.35839518952440563 -0.007723250217700774 3.1032138312100837 -0.09527769649757573 0.2546759051546937 -2.5360349386566026
-1.04804381101342 0.3025109272048007 3.754265376521862 -0.5461878593486189 0.004661472783544605 0.010400441665924333 0.010073866684047927 -0.0007770302532795756
